
Creating CNN model...
__________________________________________________________________________________________________
Layer (type)                    Output Shape         Param #     Connected to                     
==================================================================================================
input_1 (InputLayer)            (None, 48, 140, 3)   0                                            
__________________________________________________________________________________________________
conv2d_1 (Conv2D)               (None, 48, 140, 32)  896         input_1[0][0]                    
__________________________________________________________________________________________________
conv2d_2 (Conv2D)               (None, 46, 138, 32)  9248        conv2d_1[0][0]                   
__________________________________________________________________________________________________
max_pooling2d_1 (MaxPooling2D)  (None, 23, 69, 32)   0           conv2d_2[0][0]                   
__________________________________________________________________________________________________
conv2d_3 (Conv2D)               (None, 23, 69, 64)   18496       max_pooling2d_1[0][0]            
__________________________________________________________________________________________________
conv2d_4 (Conv2D)               (None, 21, 67, 64)   36928       conv2d_3[0][0]                   
__________________________________________________________________________________________________
max_pooling2d_2 (MaxPooling2D)  (None, 10, 33, 64)   0           conv2d_4[0][0]                   
__________________________________________________________________________________________________
conv2d_5 (Conv2D)               (None, 10, 33, 128)  73856       max_pooling2d_2[0][0]            
__________________________________________________________________________________________________
conv2d_6 (Conv2D)               (None, 8, 31, 128)   147584      conv2d_5[0][0]                   
__________________________________________________________________________________________________
batch_normalization_1 (BatchNor (None, 8, 31, 128)   32          conv2d_6[0][0]                   
__________________________________________________________________________________________________
max_pooling2d_3 (MaxPooling2D)  (None, 4, 15, 128)   0           batch_normalization_1[0][0]      
__________________________________________________________________________________________________
conv2d_7 (Conv2D)               (None, 4, 15, 256)   295168      max_pooling2d_3[0][0]            
__________________________________________________________________________________________________
conv2d_8 (Conv2D)               (None, 4, 15, 256)   590080      conv2d_7[0][0]                   
__________________________________________________________________________________________________
max_pooling2d_4 (MaxPooling2D)  (None, 2, 7, 256)    0           conv2d_8[0][0]                   
__________________________________________________________________________________________________
conv2d_9 (Conv2D)               (None, 2, 7, 512)    1180160     max_pooling2d_4[0][0]            
__________________________________________________________________________________________________
batch_normalization_2 (BatchNor (None, 2, 7, 512)    8           conv2d_9[0][0]                   
__________________________________________________________________________________________________
max_pooling2d_5 (MaxPooling2D)  (None, 1, 3, 512)    0           batch_normalization_2[0][0]      
__________________________________________________________________________________________________
flatten_1 (Flatten)             (None, 1536)         0           max_pooling2d_5[0][0]            
__________________________________________________________________________________________________
dropout_1 (Dropout)             (None, 1536)         0           flatten_1[0][0]                  
__________________________________________________________________________________________________
digit1 (Dense)                  (None, 19)           29203       dropout_1[0][0]                  
__________________________________________________________________________________________________
digit2 (Dense)                  (None, 19)           29203       dropout_1[0][0]                  
__________________________________________________________________________________________________
digit3 (Dense)                  (None, 19)           29203       dropout_1[0][0]                  
__________________________________________________________________________________________________
digit4 (Dense)                  (None, 19)           29203       dropout_1[0][0]                  
==================================================================================================
Total params: 2,469,268
Trainable params: 2,469,248
Non-trainable params: 20
__________________________________________________________________________________________________
Reading training data...
Shape of train data: (10000, 48, 140, 3)
Reading validation data...
…
